==========================================================================================
Layer (type:depth-idx)                   Output Shape              Param #
==========================================================================================
├─double_conv: 1-1                       [-1, 32, 256, 256]        --
|    └─Sequential: 2-1                   [-1, 32, 256, 256]        --
|    |    └─Conv2d: 3-1                  [-1, 32, 256, 256]        320
|    |    └─InstanceNorm2d: 3-2          [-1, 32, 256, 256]        --
|    |    └─ReLU: 3-3                    [-1, 32, 256, 256]        --
|    └─Sequential: 2-2                   [-1, 32, 256, 256]        --
|    |    └─Conv2d: 3-4                  [-1, 32, 256, 256]        9,248
|    |    └─InstanceNorm2d: 3-5          [-1, 32, 256, 256]        --
|    |    └─ReLU: 3-6                    [-1, 32, 256, 256]        --
├─downsampling: 1-2                      [-1, 32, 128, 128]        --
|    └─Sequential: 2-3                   [-1, 32, 128, 128]        --
|    |    └─Conv2d: 3-7                  [-1, 32, 128, 128]        9,248
|    |    └─InstanceNorm2d: 3-8          [-1, 32, 128, 128]        --
|    |    └─ReLU: 3-9                    [-1, 32, 128, 128]        --
├─double_conv: 1-3                       [-1, 64, 128, 128]        --
|    └─Sequential: 2-4                   [-1, 64, 128, 128]        --
|    |    └─Conv2d: 3-10                 [-1, 64, 128, 128]        18,496
|    |    └─InstanceNorm2d: 3-11         [-1, 64, 128, 128]        --
|    |    └─ReLU: 3-12                   [-1, 64, 128, 128]        --
|    └─Sequential: 2-5                   [-1, 64, 128, 128]        --
|    |    └─Conv2d: 3-13                 [-1, 64, 128, 128]        36,928
|    |    └─InstanceNorm2d: 3-14         [-1, 64, 128, 128]        --
|    |    └─ReLU: 3-15                   [-1, 64, 128, 128]        --
├─downsampling: 1-4                      [-1, 64, 64, 64]          --
|    └─Sequential: 2-6                   [-1, 64, 64, 64]          --
|    |    └─Conv2d: 3-16                 [-1, 64, 64, 64]          36,928
|    |    └─InstanceNorm2d: 3-17         [-1, 64, 64, 64]          --
|    |    └─ReLU: 3-18                   [-1, 64, 64, 64]          --
├─double_conv: 1-5                       [-1, 128, 64, 64]         --
|    └─Sequential: 2-7                   [-1, 128, 64, 64]         --
|    |    └─Conv2d: 3-19                 [-1, 128, 64, 64]         73,856
|    |    └─InstanceNorm2d: 3-20         [-1, 128, 64, 64]         --
|    |    └─ReLU: 3-21                   [-1, 128, 64, 64]         --
|    └─Sequential: 2-8                   [-1, 128, 64, 64]         --
|    |    └─Conv2d: 3-22                 [-1, 128, 64, 64]         147,584
|    |    └─InstanceNorm2d: 3-23         [-1, 128, 64, 64]         --
|    |    └─ReLU: 3-24                   [-1, 128, 64, 64]         --
├─downsampling: 1-6                      [-1, 128, 32, 32]         --
|    └─Sequential: 2-9                   [-1, 128, 32, 32]         --
|    |    └─Conv2d: 3-25                 [-1, 128, 32, 32]         147,584
|    |    └─InstanceNorm2d: 3-26         [-1, 128, 32, 32]         --
|    |    └─ReLU: 3-27                   [-1, 128, 32, 32]         --
├─double_conv: 1-7                       [-1, 256, 32, 32]         --
|    └─Sequential: 2-10                  [-1, 256, 32, 32]         --
|    |    └─Conv2d: 3-28                 [-1, 256, 32, 32]         295,168
|    |    └─InstanceNorm2d: 3-29         [-1, 256, 32, 32]         --
|    |    └─ReLU: 3-30                   [-1, 256, 32, 32]         --
|    └─Sequential: 2-11                  [-1, 256, 32, 32]         --
|    |    └─Conv2d: 3-31                 [-1, 256, 32, 32]         590,080
|    |    └─InstanceNorm2d: 3-32         [-1, 256, 32, 32]         --
|    |    └─ReLU: 3-33                   [-1, 256, 32, 32]         --
├─downsampling: 1-8                      [-1, 256, 16, 16]         --
|    └─Sequential: 2-12                  [-1, 256, 16, 16]         --
|    |    └─Conv2d: 3-34                 [-1, 256, 16, 16]         590,080
|    |    └─InstanceNorm2d: 3-35         [-1, 256, 16, 16]         --
|    |    └─ReLU: 3-36                   [-1, 256, 16, 16]         --
├─double_conv: 1-9                       [-1, 512, 16, 16]         --
|    └─Sequential: 2-13                  [-1, 512, 16, 16]         --
|    |    └─Conv2d: 3-37                 [-1, 512, 16, 16]         1,180,160
|    |    └─InstanceNorm2d: 3-38         [-1, 512, 16, 16]         --
|    |    └─ReLU: 3-39                   [-1, 512, 16, 16]         --
|    └─Sequential: 2-14                  [-1, 512, 16, 16]         --
|    |    └─Conv2d: 3-40                 [-1, 512, 16, 16]         2,359,808
|    |    └─InstanceNorm2d: 3-41         [-1, 512, 16, 16]         --
|    |    └─ReLU: 3-42                   [-1, 512, 16, 16]         --
├─upsampling: 1-10                       [-1, 256, 32, 32]         --
|    └─ConvTranspose2d: 2-15             [-1, 256, 32, 32]         2,097,408
|    └─Sequential: 2-16                  [-1, 256, 32, 32]         --
|    |    └─Conv2d: 3-43                 [-1, 256, 32, 32]         1,179,904
|    |    └─InstanceNorm2d: 3-44         [-1, 256, 32, 32]         --
|    |    └─LeakyReLU: 3-45              [-1, 256, 32, 32]         --
|    └─Sequential: 2-17                  [-1, 256, 32, 32]         --
|    |    └─Conv2d: 3-46                 [-1, 256, 32, 32]         590,080
|    |    └─InstanceNorm2d: 3-47         [-1, 256, 32, 32]         --
|    |    └─LeakyReLU: 3-48              [-1, 256, 32, 32]         --
├─upsampling: 1-11                       [-1, 128, 64, 64]         --
|    └─ConvTranspose2d: 2-18             [-1, 128, 64, 64]         524,416
|    └─Sequential: 2-19                  [-1, 128, 64, 64]         --
|    |    └─Conv2d: 3-49                 [-1, 128, 64, 64]         295,040
|    |    └─InstanceNorm2d: 3-50         [-1, 128, 64, 64]         --
|    |    └─LeakyReLU: 3-51              [-1, 128, 64, 64]         --
|    └─Sequential: 2-20                  [-1, 128, 64, 64]         --
|    |    └─Conv2d: 3-52                 [-1, 128, 64, 64]         147,584
|    |    └─InstanceNorm2d: 3-53         [-1, 128, 64, 64]         --
|    |    └─LeakyReLU: 3-54              [-1, 128, 64, 64]         --
├─upsampling: 1-12                       [-1, 64, 128, 128]        --
|    └─ConvTranspose2d: 2-21             [-1, 64, 128, 128]        131,136
|    └─Sequential: 2-22                  [-1, 64, 128, 128]        --
|    |    └─Conv2d: 3-55                 [-1, 64, 128, 128]        73,792
|    |    └─InstanceNorm2d: 3-56         [-1, 64, 128, 128]        --
|    |    └─LeakyReLU: 3-57              [-1, 64, 128, 128]        --
|    └─Sequential: 2-23                  [-1, 64, 128, 128]        --
|    |    └─Conv2d: 3-58                 [-1, 64, 128, 128]        36,928
|    |    └─InstanceNorm2d: 3-59         [-1, 64, 128, 128]        --
|    |    └─LeakyReLU: 3-60              [-1, 64, 128, 128]        --
├─upsampling: 1-13                       [-1, 32, 256, 256]        --
|    └─ConvTranspose2d: 2-24             [-1, 32, 256, 256]        32,800
|    └─Sequential: 2-25                  [-1, 32, 256, 256]        --
|    |    └─Conv2d: 3-61                 [-1, 32, 256, 256]        18,464
|    |    └─InstanceNorm2d: 3-62         [-1, 32, 256, 256]        --
|    |    └─LeakyReLU: 3-63              [-1, 32, 256, 256]        --
|    └─Sequential: 2-26                  [-1, 32, 256, 256]        --
|    |    └─Conv2d: 3-64                 [-1, 32, 256, 256]        9,248
|    |    └─InstanceNorm2d: 3-65         [-1, 32, 256, 256]        --
|    |    └─LeakyReLU: 3-66              [-1, 32, 256, 256]        --
├─Sequential: 1-14                       [-1, 1, 256, 256]         --
|    └─Conv2d: 2-27                      [-1, 1, 256, 256]         289
|    └─Sigmoid: 2-28                     [-1, 1, 256, 256]         --
├─upsampling: 1-15                       [-1, 32, 256, 256]        --
|    └─ConvTranspose2d: 2-29             [-1, 32, 256, 256]        32,800
|    └─Sequential: 2-30                  [-1, 32, 256, 256]        --
|    |    └─Conv2d: 3-67                 [-1, 32, 256, 256]        18,464
|    |    └─InstanceNorm2d: 3-68         [-1, 32, 256, 256]        --
|    |    └─LeakyReLU: 3-69              [-1, 32, 256, 256]        --
|    └─Sequential: 2-31                  [-1, 32, 256, 256]        --
|    |    └─Conv2d: 3-70                 [-1, 32, 256, 256]        9,248
|    |    └─InstanceNorm2d: 3-71         [-1, 32, 256, 256]        --
|    |    └─LeakyReLU: 3-72              [-1, 32, 256, 256]        --
├─Sequential: 1-16                       [-1, 1, 256, 256]         --
|    └─Conv2d: 2-32                      [-1, 1, 256, 256]         289
|    └─Softplus: 2-33                    [-1, 1, 256, 256]         --
==========================================================================================
Total params: 10,693,378
Trainable params: 10,693,378
Non-trainable params: 0
Total mult-adds (G): 24.70
==========================================================================================
Input size (MB): 0.50
Forward/backward pass size (MB): 208.50
Params size (MB): 40.79
Estimated Total Size (MB): 249.79
…
